…
DEBUG - 05/20/22 16:34:12 - 0:00:09 - https://huggingface.co:443 "HEAD /google/muril-base-cased/resolve/main/config.json HTTP/1.1" 200 0
DEBUG - 05/20/22 16:34:12 - 0:00:09 - Starting new HTTPS connection (1): huggingface.co:443
DEBUG - 05/20/22 16:34:13 - 0:00:10 - https://huggingface.co:443 "HEAD /google/muril-base-cased/resolve/main/pytorch_model.bin HTTP/1.1" 302 0
INFO - 05/20/22 16:34:21 - 0:00:18 - SentClf(
                                       (enc): TxtEncoder(
                                         (model): BertModel(
                                           (embeddings): BertEmbeddings(
                                             (word_embeddings): Embedding(197285, 768, padding_idx=0)
                                             (position_embeddings): Embedding(512, 768)
                                             (token_type_embeddings): Embedding(2, 768)
                                             (LayerNorm): LayerNorm((768,), eps=1e-12, elementwise_affine=True)
                                             (dropout): Dropout(p=0.1, inplace=False)
                                           )
                                           (encoder): BertEncoder(
                                             (layer): ModuleList(
                                               (0): BertLayer(
                                                 (attention): BertAttention(
                                                   (self): BertSelfAttention(
                                                     (query): Linear(in_features=768, out_features=768, bias=True)
                                                     (key): Linear(in_features=768, out_features=768, bias=True)
                                                     (value): Linear(in_features=768, out_features=768, bias=True)
                                                     (dropout): Dropout(p=0.1, inplace=False)
                                                   )
                                                   (output): BertSelfOutput(
                                                     (dense): Linear(in_features=768, out_features=768, bias=True)
                                                     (LayerNorm): LayerNorm((768,), eps=1e-12, elementwise_affine=True)
                                                     (dropout): Dropout(p=0.1, inplace=False)
                                                   )
                                                 )
                                                 (intermediate): BertIntermediate(
                                                   (dense): Linear(in_features=768, out_features=3072, bias=True)
                                                   (intermediate_act_fn): GELUActivation()
                                                 )
                                                 (output): BertOutput(
                                                   (dense): Linear(in_features=3072, out_features=768, bias=True)
                                                   (LayerNorm): LayerNorm((768,), eps=1e-12, elementwise_affine=True)
                                                   (dropout): Dropout(p=0.1, inplace=False)
                                                 )
                                               )
                                               (1): BertLayer(
                                                 (attention): BertAttention(
                                                   (self): BertSelfAttention(
                                                     (query): Linear(in_features=768, out_features=768, bias=True)
                                                     (key): Linear(in_features=768, out_features=768, bias=True)
                                                     (value): Linear(in_features=768, out_features=768, bias=True)
                                                     (dropout): Dropout(p=0.1, inplace=False)
                                                   )
                                                   (output): BertSelfOutput(
                                                     (dense): Linear(in_features=768, out_features=768, bias=True)
                                                     (LayerNorm): LayerNorm((768,), eps=1e-12, elementwise_affine=True)
                                                     (dropout): Dropout(p=0.1, inplace=False)
                                                   )
                                                 )
                                                 (intermediate): BertIntermediate(
                                                   (dense): Linear(in_features=768, out_features=3072, bias=True)
                                                   (intermediate_act_fn): GELUActivation()
                                                 )
                                                 (output): BertOutput(
                                                   (dense): Linear(in_features=3072, out_features=768, bias=True)
                                                   (LayerNorm): LayerNorm((768,), eps=1e-12, elementwise_affine=True)
                                                   (dropout): Dropout(p=0.1, inplace=False)
                                                 )
                                               )
                                               (2): BertLayer(
                                                 (attention): BertAttention(
                                                   (self): BertSelfAttention(
                                                     (query): Linear(in_features=768, out_features=768, bias=True)
                                                     (key): Linear(in_features=768, out_features=768, bias=True)
                                                     (value): Linear(in_features=768, out_features=768, bias=True)
                                                     (dropout): Dropout(p=0.1, inplace=False)
                                                   )
                                                   (output): BertSelfOutput(
                                                     (dense): Linear(in_features=768, out_features=768, bias=True)
                                                     (LayerNorm): LayerNorm((768,), eps=1e-12, elementwise_affine=True)
                                                     (dropout): Dropout(p=0.1, inplace=False)
                                                   )
                                                 )
                                                 (intermediate): BertIntermediate(
                                                   (dense): Linear(in_features=768, out_features=3072, bias=True)
                                                   (intermediate_act_fn): GELUActivation()
                                                 )
                                                 (output): BertOutput(
                                                   (dense): Linear(in_features=3072, out_features=768, bias=True)
                                                   (LayerNorm): LayerNorm((768,), eps=1e-12, elementwise_affine=True)
                                                   (dropout): Dropout(p=0.1, inplace=False)
                                                 )
                                               )
                                               (3): BertLayer(
                                                 (attention): BertAttention(
                                                   (self): BertSelfAttention(
                                                     (query): Linear(in_features=768, out_features=768, bias=True)
                                                     (key): Linear(in_features=768, out_features=768, bias=True)
                                                     (value): Linear(in_features=768, out_features=768, bias=True)
                                                     (dropout): Dropout(p=0.1, inplace=False)
                                                   )
                                                   (output): BertSelfOutput(
                                                     (dense): Linear(in_features=768, out_features=768, bias=True)
                                                     (LayerNorm): LayerNorm((768,), eps=1e-12, elementwise_affine=True)
                                                     (dropout): Dropout(p=0.1, inplace=False)
                                                   )
                                                 )
                                                 (intermediate): BertIntermediate(
                                                   (dense): Linear(in_features=768, out_features=3072, bias=True)
                                                   (intermediate_act_fn): GELUActivation()
                                                 )
                                                 (output): BertOutput(
                                                   (dense): Linear(in_features=3072, out_features=768, bias=True)
                                                   (LayerNorm): LayerNorm((768,), eps=1e-12, elementwise_affine=True)
                                                   (dropout): Dropout(p=0.1, inplace=False)
                                                 )
                                               )
                                               (4): BertLayer(
                                                 (attention): BertAttention(
                                                   (self): BertSelfAttention(
                                                     (query): Linear(in_features=768, out_features=768, bias=True)
                                                     (key): Linear(in_features=768, out_features=768, bias=True)
                                                     (value): Linear(in_features=768, out_features=768, bias=True)
                                                     (dropout): Dropout(p=0.1, inplace=False)
                                                   )
                                                   (output): BertSelfOutput(
                                                     (dense): Linear(in_features=768, out_features=768, bias=True)
                                                     (LayerNorm): LayerNorm((768,), eps=1e-12, elementwise_affine=True)
                                                     (dropout): Dropout(p=0.1, inplace=False)
                                                   )
                                                 )
                                                 (intermediate): BertIntermediate(
                                                   (dense): Linear(in_features=768, out_features=3072, bias=True)
                                                   (intermediate_act_fn): GELUActivation()
                                                 )
                                                 (output): BertOutput(
                                                   (dense): Linear(in_features=3072, out_features=768, bias=True)
                                                   (LayerNorm): LayerNorm((768,), eps=1e-12, elementwise_affine=True)
                                                   (dropout): Dropout(p=0.1, inplace=False)
                                                 )
                                               )
                                               (5): BertLayer(
                                                 (attention): BertAttention(
                                                   (self): BertSelfAttention(
                                                     (query): Linear(in_features=768, out_features=768, bias=True)
                                                     (key): Linear(in_features=768, out_features=768, bias=True)
                                                     (value): Linear(in_features=768, out_features=768, bias=True)
                                                     (dropout): Dropout(p=0.1, inplace=False)
                                                   )
                                                   (output): BertSelfOutput(
                                                     (dense): Linear(in_features=768, out_features=768, bias=True)
                                                     (LayerNorm): LayerNorm((768,), eps=1e-12, elementwise_affine=True)
                                                     (dropout): Dropout(p=0.1, inplace=False)
                                                   )
                                                 )
                                                 (intermediate): BertIntermediate(
                                                   (dense): Linear(in_features=768, out_features=3072, bias=True)
                                                   (intermediate_act_fn): GELUActivation()
                                                 )
                                                 (output): BertOutput(
                                                   (dense): Linear(in_features=3072, out_features=768, bias=True)
                                                   (LayerNorm): LayerNorm((768,), eps=1e-12, elementwise_affine=True)
                                                   (dropout): Dropout(p=0.1, inplace=False)
                                                 )
                                               )
                                               (6): BertLayer(
                                                 (attention): BertAttention(
                                                   (self): BertSelfAttention(
                                                     (query): Linear(in_features=768, out_features=768, bias=True)
                                                     (key): Linear(in_features=768, out_features=768, bias=True)
                                                     (value): Linear(in_features=768, out_features=768, bias=True)
                                                     (dropout): Dropout(p=0.1, inplace=False)
                                                   )
                                                   (output): BertSelfOutput(
                                                     (dense): Linear(in_features=768, out_features=768, bias=True)
                                                     (LayerNorm): LayerNorm((768,), eps=1e-12, elementwise_affine=True)
                                                     (dropout): Dropout(p=0.1, inplace=False)
                                                   )
                                                 )
                                                 (intermediate): BertIntermediate(
                                                   (dense): Linear(in_features=768, out_features=3072, bias=True)
                                                   (intermediate_act_fn): GELUActivation()
                                                 )
                                                 (output): BertOutput(
                                                   (dense): Linear(in_features=3072, out_features=768, bias=True)
                                                   (LayerNorm): LayerNorm((768,), eps=1e-12, elementwise_affine=True)
                                                   (dropout): Dropout(p=0.1, inplace=False)
                                                 )
                                               )
                                               (7): BertLayer(
                                                 (attention): BertAttention(
                                                   (self): BertSelfAttention(
                                                     (query): Linear(in_features=768, out_features=768, bias=True)
                                                     (key): Linear(in_features=768, out_features=768, bias=True)
                                                     (value): Linear(in_features=768, out_features=768, bias=True)
                                                     (dropout): Dropout(p=0.1, inplace=False)
                                                   )
                                                   (output): BertSelfOutput(
                                                     (dense): Linear(in_features=768, out_features=768, bias=True)
                                                     (LayerNorm): LayerNorm((768,), eps=1e-12, elementwise_affine=True)
                                                     (dropout): Dropout(p=0.1, inplace=False)
                                                   )
                                                 )
                                                 (intermediate): BertIntermediate(
                                                   (dense): Linear(in_features=768, out_features=3072, bias=True)
                                                   (intermediate_act_fn): GELUActivation()
                                                 )
                                                 (output): BertOutput(
                                                   (dense): Linear(in_features=3072, out_features=768, bias=True)
                                                   (LayerNorm): LayerNorm((768,), eps=1e-12, elementwise_affine=True)
                                                   (dropout): Dropout(p=0.1, inplace=False)
                                                 )
                                               )
                                               (8): BertLayer(
                                                 (attention): BertAttention(
                                                   (self): BertSelfAttention(
                                                     (query): Linear(in_features=768, out_features=768, bias=True)
                                                     (key): Linear(in_features=768, out_features=768, bias=True)
                                                     (value): Linear(in_features=768, out_features=768, bias=True)
                                                     (dropout): Dropout(p=0.1, inplace=False)
                                                   )
                                                   (output): BertSelfOutput(
                                                     (dense): Linear(in_features=768, out_features=768, bias=True)
                                                     (LayerNorm): LayerNorm((768,), eps=1e-12, elementwise_affine=True)
                                                     (dropout): Dropout(p=0.1, inplace=False)
                                                   )
                                                 )
                                                 (intermediate): BertIntermediate(
                                                   (dense): Linear(in_features=768, out_features=3072, bias=True)
                                                   (intermediate_act_fn): GELUActivation()
                                                 )
                                                 (output): BertOutput(
                                                   (dense): Linear(in_features=3072, out_features=768, bias=True)
                                                   (LayerNorm): LayerNorm((768,), eps=1e-12, elementwise_affine=True)
                                                   (dropout): Dropout(p=0.1, inplace=False)
                                                 )
                                               )
                                               (9): BertLayer(
                                                 (attention): BertAttention(
                                                   (self): BertSelfAttention(
                                                     (query): Linear(in_features=768, out_features=768, bias=True)
                                                     (key): Linear(in_features=768, out_features=768, bias=True)
                                                     (value): Linear(in_features=768, out_features=768, bias=True)
                                                     (dropout): Dropout(p=0.1, inplace=False)
                                                   )
                                                   (output): BertSelfOutput(
                                                     (dense): Linear(in_features=768, out_features=768, bias=True)
                                                     (LayerNorm): LayerNorm((768,), eps=1e-12, elementwise_affine=True)
                                                     (dropout): Dropout(p=0.1, inplace=False)
                                                   )
                                                 )
                                                 (intermediate): BertIntermediate(
                                                   (dense): Linear(in_features=768, out_features=3072, bias=True)
                                                   (intermediate_act_fn): GELUActivation()
                                                 )
                                                 (output): BertOutput(
                                                   (dense): Linear(in_features=3072, out_features=768, bias=True)
                                                   (LayerNorm): LayerNorm((768,), eps=1e-12, elementwise_affine=True)
                                                   (dropout): Dropout(p=0.1, inplace=False)
                                                 )
                                               )
                                               (10): BertLayer(
                                                 (attention): BertAttention(
                                                   (self): BertSelfAttention(
                                                     (query): Linear(in_features=768, out_features=768, bias=True)
                                                     (key): Linear(in_features=768, out_features=768, bias=True)
                                                     (value): Linear(in_features=768, out_features=768, bias=True)
                                                     (dropout): Dropout(p=0.1, inplace=False)
                                                   )
                                                   (output): BertSelfOutput(
                                                     (dense): Linear(in_features=768, out_features=768, bias=True)
                                                     (LayerNorm): LayerNorm((768,), eps=1e-12, elementwise_affine=True)
                                                     (dropout): Dropout(p=0.1, inplace=False)
                                                   )
                                                 )
                                                 (intermediate): BertIntermediate(
                                                   (dense): Linear(in_features=768, out_features=3072, bias=True)
                                                   (intermediate_act_fn): GELUActivation()
                                                 )
                                                 (output): BertOutput(
                                                   (dense): Linear(in_features=3072, out_features=768, bias=True)
                                                   (LayerNorm): LayerNorm((768,), eps=1e-12, elementwise_affine=True)
                                                   (dropout): Dropout(p=0.1, inplace=False)
                                                 )
                                               )
                                               (11): BertLayer(
                                                 (attention): BertAttention(
                                                   (self): BertSelfAttention(
                                                     (query): Linear(in_features=768, out_features=768, bias=True)
                                                     (key): Linear(in_features=768, out_features=768, bias=True)
                                                     (value): Linear(in_features=768, out_features=768, bias=True)
                                                     (dropout): Dropout(p=0.1, inplace=False)
                                                   )
                                                   (output): BertSelfOutput(
                                                     (dense): Linear(in_features=768, out_features=768, bias=True)
                                                     (LayerNorm): LayerNorm((768,), eps=1e-12, elementwise_affine=True)
                                                     (dropout): Dropout(p=0.1, inplace=False)
                                                   )
                                                 )
                                                 (intermediate): BertIntermediate(
                                                   (dense): Linear(in_features=768, out_features=3072, bias=True)
                                                   (intermediate_act_fn): GELUActivation()
                                                 )
                                                 (output): BertOutput(
                                                   (dense): Linear(in_features=3072, out_features=768, bias=True)
                                                   (LayerNorm): LayerNorm((768,), eps=1e-12, elementwise_affine=True)
                                                   (dropout): Dropout(p=0.1, inplace=False)
                                                 )
                                               )
                                             )
                                           )
                                           (pooler): BertPooler(
                                             (dense): Linear(in_features=768, out_features=768, bias=True)
                                             (activation): Tanh()
                                           )
                                         )
                                       )
                                       (clf): Sequential(
                                         (0): Linear(in_features=768, out_features=768, bias=True)
                                         (1): BatchNorm1d(768, eps=1e-05, momentum=0.1, affine=True, track_running_stats=True)
                                         (2): ReLU()
                                         (3): Dropout(p=0.1, inplace=False)
                                         (4): Linear(in_features=768, out_features=2, bias=True)
                                       )
                                     )
INFO - 05/20/22 16:34:32 - 0:00:30 - Training..
INFO - 05/20/22 16:40:04 - 0:06:02 - Train Loss: 0.0087
INFO - 05/20/22 16:40:04 - 0:06:02 - Val: Loss: 0.05848 | F1: 0.71999 | Precision: 0.77661 | Recall: 0.69555 | Accuracy: 0.82211
DEBUG - 05/20/22 16:40:04 - 0:06:02 - Resetting dropped connection: dagshub.com
…
